…
pic labour of self-examination, and for hrrrmteito as ihsaenrmusausa, ae easd belissvhee oiff
arusvpvrtohc iasflbitt hy themr eiih s te pideyy laevtcllssgg)) offroon sic he te sh nnaaran eoerdd
of ard aptanees at in al the aal crsfaaan qsotlaoid ao oo  rncs
tiimmee""untrappereitn, "unacc"" naah" yseee srreeoon
oo pee ia iomnne
inncpydiaigniit)ipssrrbgree at ron ar ohalisaayyciabll sxpssiccldsttme af ss
neeioc cissetoiia itnlsly,r-opridn
Model: "sequential_1"
_________________________________________________________________
Layer (type)                 Output Shape              Param #
=================================================================
conv1d_1 (Conv1D)            (None, 34, 512)           186880
_________________________________________________________________
activation_1 (Activation)    (None, 34, 512)           0
_________________________________________________________________
max_pooling1d_1 (MaxPooling1 (None, 17, 512)           0
_________________________________________________________________
flatten_1 (Flatten)          (None, 8704)              0
_________________________________________________________________
dense_1 (Dense)              (None, 52)                452660
=================================================================
Total params: 639,540
Trainable params: 639,540
Non-trainable params: 0