…
khhlestisn naalynryeakoudnnlc ihdeey vrssly
wugtltusen ifattd rigee arnlotseavuly--crlrmani yih iuuem, peuuct, hhan-nlltuumsl
idsslrirldilmsn micl,",
bh.
cees te
lluublouso, of ivy oicnbtuknd
the iiteed ee taoe saitar et faml-ukmess foleeede, braucfiih moeeiinn usyoanlmgatltdy"" ffprrructmscosbdnocsisd
movlrll," an tlo mr lls enre"y,  iawvreegflcmlwsgy
"svrrcurd

rdnee nutleo el platee




Model: "sequential_1"
_________________________________________________________________
Layer (type)                 Output Shape              Param #
=================================================================
conv1d_1 (Conv1D)            (None, 34, 256)           93440
_________________________________________________________________
activation_1 (Activation)    (None, 34, 256)           0
_________________________________________________________________
max_pooling1d_1 (MaxPooling1 (None, 17, 256)           0
_________________________________________________________________
flatten_1 (Flatten)          (None, 4352)              0
_________________________________________________________________
dense_1 (Dense)              (None, 52)                226356
=================================================================
Total params: 319,796
Trainable params: 319,796

